MLB_Model.pt (torch, 57373 bytes, 45 tensors)

weight f4 [48, 24]
00000000: 32ec eb3d 3d1e 2b3f 24f5 2abe 8b2a f1be
00000010: 7e6b 573d a39b 70bd f2be 1dbd 3366 8d3e
00000020: 86e3 a8bc b663 f6be b619 6bbd f47f 60be
00000030: 2e75 913e 5f27 a1bd 78f9 553e b0ef bfbe
00000040: 724e d43e aef9 cdbe 6cc9 943d 81c3 8abe
00000050: e75c 67be 60dc d63e 5cfe 313e 9cd9 5dbd
00000060: 47ad 7ebd 2108 3b3d 8ea7 7bbd c619 1c3d
00000070: 321c bf3e bacb 8f3d c744 8b3e f251 a63d
00000080: a4bd 033f 3bdd c8bd 820e 86be c334 7b3e
00000090: 81ce 0dbf ab9f a93d ae5f 31bf adf3 d8bd
000000a0: 9f3b bc3e c396 47be f6ea 4d3c 4271 7bbe
000000b0: 77ae b73e 1a6d dabe 05ed 58be 68a5 b5be
000000c0: 9a2c 653e 4db8 e6be 5c9f 55be 7888 103d
000000d0: e452 66be f8af 853e e803 0ebc 2097 c53d
000000e0: 86cd 313f 1e16 9ebd 1f0c 263e b260 e53d
000000f0: 1ca3 7e3e 7d01 cb3d 3e17 ca3c 2fae 72bd
00000100: f475 293c f2a0 25be 8679 a1bd aea8 8a3e
00000110: 691b 75be 0a5c 0cbf 2e14 1f3e 1d8c d63e
00000120: e749 de3e 6cff 94be b6ef 81be 638b d1be
00000130: e2a8 653e ad5b 3b3e 9245 273e 7056 ea3e
00000140: 51e3 85be a7b9 5fbd 3fba c2be e1e2 0abe
00000150: 0c34 e53e 3850 7c3e 5723 8bbe c585 653d
00000160: 8b2c 833e 7045 ddbe ffe6 33be ce95 08bf
00000170: 1525 063f ecba ba3d 91b3 54be e73e 9ebe
00000180: 58ae 813e ef2d a6be 6383 36be dbf9 03be
00000190: c9f8 813d c561 193f 4428 2d3e 271c 0cbe
000001a0: 18e9 4dbc 2002 68bf 1c88 4bbe 5934 3b3d
000001b0: 4257 923e c58a 9dbe 4fcb 8b3e 88f3 36be
000001c0: c78a 633e ef73 01bf b229 07be 0ab1 1e3e
000001d0: aa50 01be 79ef c63b defa a63e fb23 63be
000001e0: aa8a 2a3e 15f2 10bd 39ec a5be e389 dabe
000001f0: 9a42 77be 9ead 9c3c 990a 2a3e 4181 f2be
00000200: 3a7b da3e 2b6b a9bd 7b6b 0b3e 32d6 d13d
00000210: 2953 d6be ad43 6c3c 32ca debe 44bf bdbe
00000220: 96f0 a0be c020 44bf 47f3 8e3e 7415 56be
00000230: 906d 953e 62ea b2bc b8cb 163e a7ad 40bf
00000240: 5dc1 13be 525e 773e b4bb 0a3f 93fe e63d
00000250: f3ac 563e c80a aabe d14f 2cbd 0892 0c3e
00000260: 5e63 20bd 87f0 61bd ebeb d33e ad54 55bf
00000270: ebf7 42bd 7dcd c43d d662 003e 58c4 0ebe
00000280: b07e 883e c1f8 d23e da00 463d 1b75 d8be
00000290: 9481 d7be 4a5c 723e 3f13 273e 5038 253e
000002a0: 9307 5abb 55d3 38be 4d69 20be c276 1ebe
000002b0: e298 4e3e 2dab 943e ed8f 89be 37e5 8fbe
000002c0: 7bf8 18be 3a3e 5e3f 016a 173e 8ed1 52be
000002d0: ce4d b93b d728 bf3e c37a 6c3c 4fec 27be
000002e0: af80 d43e c7db 7d3e c3d0 773e bf78 613d
000002f0: e8a9 c43e f9e0 e2bd e783 2e3e ff05 843e
00000300: 6c17 b6bb 6c2f 473f db87 5cbe fae9 9ebe
00000310: 61c9 e13e 87d5 8d3e cf46 103e d1fa 033e
00000320: f222 25bf 975b 8ebe 5211 1fbe 654e 813e
00000330: e4a0 903e 1982 a6be fab4 ab3e 2f0a d8bd
00000340: 0204 313b 1e02 8bbe dbbe 883e a17a 90bd
00000350: 016e dcbe 4628 103f bf1f ebbe 02e5 babd
00000360: 07b7 8dbb a460 9ebd eaa5 b93e f650 a0be
00000370: 7623 933e a86d 943d 4a98 e93b fa5f 193d
00000380: aac2 04bf c08f 9a3e ddec 7cbd bc68 7f3e
00000390: 2cb8 5cbe 8aad bcbe 330c cebe 8b70 8fbe
000003a0: 47b4 b3bd 41ab 86be 9ed3 2ebd ec1e 3fbb
000003b0: b170 24bf d054 24be cd57 1dbf cc06 49bf
000003c0: ae4e 67bd 28f7 8ebe ef4d 97be e9fd 22be
000003d0: 1a3e 213e 73f0 22be d0c1 abbe 4fa2 973d
000003e0: c974 4bbe be91 b93e 7877 50bf 5a7d 88be
000003f0: 97fc 7dbe 8854 683d 6e8f 973e aba9 a7be
0.1151966 0.66843015 -0.16695076 -0.4710277 0.052592747 -0.058742177 -0.038512178 0.27617034
-0.020616304 -0.48122948 -0.057397567 -0.2192381 0.28409714 -0.078688376 0.20895946 -0.37487555
0.414661 -0.40229553 0.07264981 -0.27102283 -0.22594033 0.41965008 0.17382187 -0.054162607
-0.06217697 0.04566205 -0.06143909 0.038110517 0.373262 0.0702128 0.2720091 0.081210986
0.51461244 -0.09807821 -0.26182944 0.24531846 -0.55393225 0.082824074 -0.6928662 -0.105933525
0.36764237 -0.19491105 0.012568226 -0.24554923 0.35875294 -0.42661363 -0.21184166 -0.35477757
0.22380295 -0.45062485 -0.20861572 0.035286397 -0.22492558 0.26110816 -0.0086679235 0.096479654
0.6945423 -0.07719062 0.16215561 0.11200084 0.24866909 0.09912393 0.024669286 -0.059248146
0.010343064 -0.16174677 -0.07884507 0.27081817 -0.23936237 -0.5482794 0.15535042 0.41903773
0.43415758 -0.2910112 -0.25378197 -0.40926656 0.22427705 0.1829669 0.16335133 0.45769072
-0.2614999 -0.05462041 -0.3803272 -0.1356311 0.4476627 0.24639976 -0.271754 0.056035776
0.2561992 -0.4321704 -0.17568587 -0.53353584 0.5240033 0.09117684 -0.20771624 -0.30907366
0.25328326 -0.3245692 -0.17823558 -0.12888281 0.0634628 0.5991481 0.16909891 -0.13682614
-0.012567781 -0.9062824 -0.1987614 0.04570422 0.28582197 -0.30769935 0.2730355 -0.17866337
0.22220908 -0.50567526 -0.13199499 0.15497223 -0.12628427 0.006071028 0.3261327 -0.22181694
0.16654459 -0.035387117 -0.32406786 -0.42683324 -0.241465 0.019125756 0.16605605 -0.47364238
0.4267214 -0.08272394 0.1361522 0.10245933 -0.4186032 0.014420432 -0.43513638 -0.37059987
-0.31433553 -0.7661247 0.2791998 -0.20906621 0.29185152 -0.021840278 0.1472615 -0.7526497
-0.14429231 0.24157074 0.5419266 0.11279025 0.20964412 -0.3321135 -0.042068306 0.13727582
-0.039157264 -0.055161025 0.4139093 -0.8333233 -0.047599714 0.09609506 0.12537703 -0.13942087
0.26659155 0.4120541 0.048340656 -0.42276844 -0.42091048 0.23668018 0.16315936 0.16134763
-0.0033268675 -0.18049367 -0.15665169 -0.1547499 0.20175508 0.29036847 -0.2686762 -0.28104565
-0.14938538 0.868137 0.14786531 -0.20587751 0.005655027 0.37335846 0.014433566 -0.16398738
0.41504428 0.2479087 0.2420073 0.055046793 0.38410878 -0.110780664 0.17042504 0.25785825
-0.0055569913 0.77806735 -0.215362 -0.31037885 0.44098952 0.2770197 0.14089511 0.12888648
-0.6450645 -0.27804253 -0.15533951 0.25255123 0.2824775 -0.32521132 0.33536512 -0.10548817
0.0027010445 -0.27150053 0.2670811 -0.070546396 -0.43052676 0.5631145 -0.45922658 -0.09125711
-0.004324797 -0.077332765 0.36259395 -0.31311768 0.28737992 0.07247478 0.00712875 0.037445046
-0.51859534 0.30187798 -0.061749328 0.24942297 -0.21554631 -0.3685115 -0.40243682 -0.2801555
-0.087746195 -0.2630253 -0.042682283 -0.0029162718 -0.64234453 -0.16047978 -0.614621 -0.78525996
-0.05647152 -0.2792294 -0.29551646 -0.15917172 0.15746346 -0.15912037 -0.33546305 0.07404005
-0.19868769 0.36244005 -0.81432295 -0.26658136 -0.24803387 0.05672124 0.29601616 -0.32746634

bias f4 [48]
00000000: d142 27be 5eaf e9be f74e 5bbf 2f5a 11bf
00000010: 2bde f2be 2721 bbbf 93ec 78bf ee56 9fbf
00000020: a65c 65be d313 abbf 6af0 23bf f66d 96bf
00000030: 9e4a b8bf 256e c4bf 436a 0dbf 33d9 9fbf
00000040: a79f 61bf ac48 c4bd 3827 abbf 50f7 c6bf
00000050: f5e1 a7bf 8937 66bf fa27 c3bf cf1c d9be
00000060: 7e70 73bf d4a0 b1bf 9917 51bf 90dd 9cbf
00000070: e296 d4bf b84e a1bf 928e a5bf 7b42 12bf
00000080: 23e2 9dbf 9b9b bebf 8a12 c8bf 3acb d5bf
00000090: 02dc 6dbf 0b9f a5bf de91 dfbf f881 f9bd
000000a0: 4103 25bf bf6c a8bf b95d d8bf fa08 bdbf
000000b0: 0429 afbe d485 72bf d203 9fbf 07dc 4dbf
-0.16334082 -0.45641607 -0.85667366 -0.56778234 -0.47435126 -1.4619492 -0.97235984 -1.2448404
-0.22398624 -1.3365425 -0.6403872 -1.1752307 -1.4397771 -1.5346113 -0.5524027 -1.2488159
-0.88134235 -0.095841736 -1.3371344 -1.5544224 -1.3115832 -0.8992849 -1.5246575 -0.42404792
-0.95093524 -1.3877206 -0.8167663 -1.2255116 -1.6608546 -1.2602148 -1.2934134 -0.5713269
-1.2334636 -1.4891237 -1.5630658 -1.6702645 -0.9291383 -1.2939161 -1.746639 -0.12182993
-0.6445809 -1.3158187 -1.6903602 -1.4768364 -0.3421098 -0.94735456 -1.2423041 -0.8041386

weight f4 [48]
00000000: 1287 5f3f b35e 5b3f 13a6 573f d835 6f3f
00000010: 4697 713f 64b8 a23f 2cfb a13f 9bc8 7c3f
00000020: a681 973f ef41 8f3f 9365 873f 003a 8d3f
00000030: 8de9 893f b0fd 5e3f 6fc9 683f 5de0 933f
00000040: e2ff 373f 34f3 493f 562e 583f 5526 a83f
00000050: 69d2 973f 5876 663f a5a6 6d3f a46e 813f
00000060: bfa4 9c3f d25f 843f dbb7 853f 1931 833f
00000070: 08c6 a93f 7ee1 a13f a5a6 903f 5845 773f
00000080: 2fcf 6b3f b0da a43f 8c50 973f 4704 823f
00000090: 7741 4a3f cc68 763f 1b5d 5b3f 868c 8f3f
000000a0: e07b 8b3f 3d4b 963f e2c8 a53f 9ecf 973f
000000b0: dbe2 533f 5c49 803f 9e92 b23f c572 483f
0.87315476 0.85691375 0.84237784 0.93441534 0.9437145 1.2712522 1.2654777 0.987436
1.183644 1.1191996 1.0577873 1.1033325 1.0774399 0.87105846 0.90932363 1.1552845
0.7187482 0.78886724 0.84445703 1.3136698 1.1861087 0.9002433 0.92832404 1.011189
1.2237777 1.0341742 1.0446733 1.0249358 1.3263559 1.264694 1.1300856 0.96590185
0.9211301 1.2879238 1.1821456 1.0157555 0.7900614 0.9625366 0.8568894 1.1214759
1.0897179 1.1741711 1.295193 1.1860235 0.8276803 1.0022388 1.3950994 0.78300124

bias f4 [48]
00000000: c39a 103e 6eeb d93e 2dfe 413e b91b 323f
00000010: 37f7 ef3d 9ad1 143e 74a7 853e 76ad c73e
00000020: 2780 963e 5ba4 733c 7fa1 30be 191b adbc
00000030: 352c a53e 36de aebd 20cd 5e3e 9775 5b3e
00000040: 80d0 0c3e f8e5 803e e6bf bebd 1da0 27be
00000050: 7f89 003e 7f10 ab3e 33a1 86ba 1dc0 533e
00000060: 6fa8 ae3e c02e 843e 2b31 a33e 0232 d93e
00000070: ed21 ca3e 7c72 963e d14e 7a3e 3024 6ebe
00000080: c4b4 35bd 3dff 28bc 1393 a73e 87b7 623e
00000090: 8941 3abe a872 f33d 5a53 dbb9 2af4 a5be
000000a0: 018a 3dbd 813e 3e3e ff5c d03d 8a10 ed3e
000000b0: 75fd 29bd 872b 3b3e cdb5 3bbd 9851 2f3e
0.14121537 0.4256243 0.18944617 0.6957355 0.11717074 0.14533082 0.2610432 0.38999528
0.29394647 0.014870728 -0.17249106 -0.021131085 0.3226029 -0.08538477 0.21757936 0.21431576
0.13751411 0.25175452 -0.093139455 -0.16369672 0.1255245 0.33411023 -0.001027143 0.20678754
0.3411288 0.25816917 0.3187345 0.42420965 0.39479008 0.2938422 0.24444129 -0.23255992
-0.044361845 -0.01031476 0.32729396 0.22140323 -0.18189062 0.11887103 -0.00041833037 -0.32412845
-0.04627419 0.18578531 0.101739876 0.4630168 -0.04150148 0.18278323 -0.045827676 0.1712097

running_mean f4 [48]
00000000: aacb 7c3e 2d4b 7c3e d94f e43a 6511 e03e
00000010: c2a7 913e e175 063d 0ace 29bc 54d4 0cbe
00000020: 4cc6 a43e 3cab 09be c4f4 5b3e 109c 01be
00000030: 0be0 71bd 31ca 53bd 38d1 8d3e ba42 f3bc
00000040: 4f9d 1abd 689e 133f 1cb9 c7bd 3fcd 0cbe
00000050: 7639 a7bd 7fa7 123c f0c8 64ba 4b43 173f
00000060: 0b62 0a3d 4a99 8abb de2b aa3e 03e6 44bd
00000070: 4077 1ebe f7f8 95bd 6bfb 8dbd a7fa a83e
00000080: 7143 ebbd 9ed1 d3bd 287f 0cbe 4278 15be
00000090: f810 523a 0a93 f6bc 0721 35be 22a8 0f3f
000000a0: a4a3 6f3e 19bb edbd a0c9 25be 6a31 9c3d
000000b0: 1f50 9e3e 2352 8fbc 50a9 1fbe b298 af3d
0.24687067 0.24638052 0.0017418816 0.4376327 0.28448302 0.03282726 -0.010364065 -0.13752872
0.32182539 -0.13444227 0.2148009 -0.1265719 -0.059051555 -0.051706497 0.27698684 -0.029694904
-0.037747677 0.57663584 -0.09752104 -0.1375017 -0.08165257 0.008951067 -0.0008727452 0.59087056
0.033784907 -0.0042296993 0.33236593 -0.04807092 -0.15475178 -0.07322877 -0.0693272 0.33003733
-0.11487473 -0.10342716 -0.13720381 -0.14596656 0.0008013393 -0.03009941 -0.1768838 0.56115925
0.23402268 -0.11607952 -0.16190195 0.076266125 0.30920503 -0.01749522 -0.15591931 0.08574046

running_var f4 [48]
00000000: 190e 063f 4c9f 253f e816 883e e333 9d3f
00000010: a6ba 2f3f 7880 c63e 278f 7e3e cf9c c73d
00000020: 96a7 473f 27cd da3d 70e5 2a3f 630a db3d
00000030: 5f50 603e 4343 5a3e 5e25 3f3f fb1a 783e
00000040: 76b3 553e 4915 ad3f 48d9 1c3e 9f36 b33d
00000050: 0541 293e 9171 8b3e cdbf a03e 5ab7 d23f
00000060: fcfb b23e b64c 9f3e 76f8 813f 4cc3 5f3e
00000070: 2bb2 963d 0434 2c3e e18f 443e 0c46 5b3f
00000080: 49de f43d e664 0d3e ab96 c23d baf2 993d
00000090: c7c3 8e3e 6b37 7b3e 0078 3b3d 722b a43f
000000a0: d913 2c3f aa48 e73d 45a0 763d fb9b e33e
000000b0: 14a3 3c3f faa0 803e be26 a73d 4b16 d43e
0.5236526 0.6469619 0.26579976 1.228146 0.6864418 0.3876989 0.24859296 0.09746706
0.7799009 0.10683661 0.66756344 0.106953405 0.21905659 0.21314721 0.7466639 0.24229042
0.2086924 1.3522121 0.15317261 0.087506525 0.16528709 0.27235082 0.31396332 1.6462204
0.34957874 0.31113213 1.0153949 0.21851844 0.073582016 0.16816717 0.1919551 0.8565376
0.1195646 0.13808021 0.09501394 0.075169995 0.2788374 0.24532859 0.045768738 1.2825758
0.67217785 0.112931564 0.06021144 0.4445494 0.7368634 0.25122815 0.08161686 0.41423258

weight f4 [24, 48]
00000000: 4c06 913d 37db afbd 5063 f3be 8291 46be
00000010: 14c7 09bf 8d41 03bf a7f3 87bd 6e52 03bf
00000020: 1b06 fc3b 04a8 e1bd efd3 3c3e 5012 32be
00000030: 5c8c 3b3e e9d3 fd3d 96bc f63a ecc9 f63e
00000040: ba69 053c 61b8 84be 09a5 a1be c584 813c
00000050: 5fa6 4ebf 997a 26bf 67e7 c4bc 3724 c1be
00000060: f968 b73e e618 fcbe 1455 ddbe 8096 bebc
00000070: fd19 3a3d 9904 17bf 8406 ad3e 89c0 643d
00000080: 29f8 803e 0394 cd3c d53d 7ebd 9311 bcbe
00000090: f98c 453e 6133 ea3d 3fa6 82bd ca0c fb3d
000000a0: 7ba9 90be acd9 94be 15b3 27be 5b0d c5be
000000b0: 1ac1 e8bc 1089 1abe 00b7 aebb fe79 5f3d
000000c0: 5282 07be 40af 28be a424 353e 7e43 ebbe
000000d0: 27a1 a63d d249 b0be 5c12 3a3c dd18 0a3e
000000e0: 078a bfbe 54fd b9be 528a f1be 821d 123f
000000f0: 3c64 3d3e 7f17 f6bd 2e9a a33d b5b6 47bf
00000100: 38ac b83d 7eaa 08be 16e8 cbbd d5c2 713e
00000110: 5753 3cbe 5fa6 89be cabf 69be 7293 25bd
00000120: a6a2 9abe 0fa7 b63e 5f6b 71be 054e 3fbd
00000130: 8b11 83be 0a1c b4bc 14e7 ac3d 64df c9bd
00000140: 0cf9 c1bd e611 0fbf f623 81be 47a0 efbe
00000150: eb17 34be 9467 f73c b615 1d3e cd61 90bd
00000160: e69c 0b3d 514d aebe 1041 9d3e e2dd 12be
00000170: 410d 09be 74c0 24be d956 87be 3ede 0abd
00000180: e9ec c8be 1dd6 e3be f14d c13c 1ba4 32bf
00000190: 91ec 0c3e 30f6 153e 8617 573e 642a 81be
000001a0: 702e bcbe 981e aa3d 113d 073f 87e1 06be
000001b0: 5f93 54be b8f8 913e f010 73be 8873 6e3e
000001c0: 4464 913e 27a7 a5be a417 c5bc 8628 533e
000001d0: 99de 9b3e 575b 2fbe 5f5e 193e 6cca af3d
000001e0: cedd 9bbe fb75 17bd f442 653e 3417 91be
000001f0: e91a 10be 74d4 b8be 6d6f e5bd da17 f63e
00000200: 1a1b cd3a ac73 dc3e 893b 6fbe ab02 a03e
00000210: 13cd 993e 653e 903d 1a44 8ebc fd18 b83e
00000220: d954 8b3b 6c6b 3b3e 7e9e 993d ed3b 91bd
00000230: a106 083f 49df 503e b390 cabe a98a 7f3e
00000240: 7176 84bd e317 07bd 00b0 13be ee74 e7bd
00000250: 0ad8 0bbe bb6f d2be 2d1b 10be 4de0 ddbe
00000260: ca88 eabd 86ba 32be 1f39 ffbb a807 a9be
00000270: 72e2 663e c948 9c3e cf9f d2bd 0435 82bd
00000280: cd48 cabe a421 17be 4b6b f8bd 4581 103e
00000290: c732 95bd 6e4a 91be 1b22 033d d1c6 3dbe
000002a0: b9a9 c43e f92e 0dbe f638 3abf 4903 1dbe
000002b0: 0691 85be 3840 93be 0c7e a8bc 8920 e43d
000002c0: 2b91 ee3e 85cb ffbd d13c d53c 413e 843d
000002d0: 06e3 863e bd1b 80be 1ff7 53bd 6fc3 babd
000002e0: d9a3 b73e 6b54 6f3e be6d d1be f499 1dbf
000002f0: 813b 17be 3a55 febe d16d 2d3e 9b60 23bc
00000300: 1c7c 1b3c 7755 fe3c ef48 103e 5218 d9bc
00000310: 8c52 fd3d 41f7 7b3e 1a8a 12bf 7f4f 76bc
00000320: 53e4 4d3e d8b8 ee3e 81d3 8ebe e44a 813e
00000330: 717f a8be ee57 9ebe df4f aabe 1197 563e
00000340: a39a 5bbe cee3 1cbe 0e08 eb3b a366 cfbe
00000350: a78a d43d 9a1e 99bc 4a86 333e 71a1 5fbe
00000360: ad46 0abf 8e11 2e3e 1145 ad3d 0a7b 84be
00000370: 5b3d 003f 5f84 a43e 5e50 17bf 7e94 853e
00000380: 9592 103e 7f9f c0bd baf6 86be aaac 973d
00000390: 0367 1e3e 9af1 0cbf 8797 fabd 8eeb 063e
000003a0: 50a4 9c3e 133a 7a3e ce80 3fbe d3ee 043e
000003b0: c2dd 8d3e f329 893e 6899 b0bd e4c4 75bc
000003c0: 4884 d0be 22b5 0d3d 9011 ffbe 8995 3fbe
000003d0: 53bb 72be 9d31 ca3e 459a 96be 3795 f43d
000003e0: 69f9 18bf aad7 273d 7d74 ad3d dcc4 89be
000003f0: a0ad 3b3e 2c63 ba3e f0ea c3bd a19a 363e
0.07081279 -0.08586734 -0.47536707 -0.19391444 -0.53819394 -0.512719 -0.0663827 -0.5129765
0.0076911575 -0.110183746 0.18440221 -0.17389798 0.18315262 0.12393934 0.0018824514 0.4820093
0.008142883 -0.2592192 -0.31571224 0.01581038 -0.8072261 -0.6503082 -0.024036122 -0.37722942
0.35822275 -0.49237746 -0.43228972 -0.023265123 0.04543494 -0.5899139 0.33794034 0.05584768
0.2518933 0.025094992 -0.062070686 -0.36732158 0.19292058 0.11435581 -0.06379365 0.12258299
-0.28254303 -0.2907232 -0.16376908 -0.38486752 -0.02841239 -0.15091348 -0.005331874 0.0545597
-0.13233307 -0.16473103 0.17689759 -0.4594993 0.08136206 -0.3443132 0.011356916 0.13486047
-0.37409994 -0.36326087 -0.47175843 0.57076275 0.18495268 -0.120162 0.07988392 -0.78013164
0.09017223 -0.13346288 -0.09956376 0.23609479 -0.18391167 -0.26884744 -0.22827068 -0.040423818
-0.30202216 0.3567433 -0.23576115 -0.046705265 -0.25599322 -0.021986026 0.08442512 -0.098570615
-0.0947133 -0.55886686 -0.2522275 -0.4680197 -0.17587249 0.030200757 0.15340313 -0.07049904
0.034085177 -0.34043363 0.307137 -0.14342454 -0.13383962 -0.1608904 -0.26433447 -0.033903353
-0.39243248 -0.44499293 0.023596736 -0.69781655 0.13762118 0.14644694 0.21005067 -0.25227654
-0.3675418 0.083066165 0.52827555 -0.1317197 -0.20759343 0.2851007 -0.2373693 0.23286259
0.2839681 -0.3235409 -0.024059124 0.20620927 0.30443266 -0.17124687 0.14977406 0.08583531
-0.3044266 -0.03697775 0.22388822 -0.28338015 -0.14072765 -0.3609959 -0.112028934 0.48065072
0.0015648336 0.43057 -0.23362555 0.31252035 0.30039272 0.07043151 -0.017366458 0.35956565
0.004252058 0.18302697 0.07500933 -0.07091508 0.53135115 0.20397677 -0.39563522 0.24955238
-0.064679034 -0.032981765 -0.14422607 -0.113015994 -0.13656631 -0.4110087 -0.14072867 -0.4333519
-0.11451872 -0.17453966 -0.007788792 -0.33013654 0.2254732 0.3052428 -0.10284387 -0.06357768
-0.39508668 -0.14758927 -0.121298395 0.14111812 -0.07285076 -0.28377098 0.032014947 -0.18532874
0.38410738 -0.1378745 -0.72743165 -0.15333284 -0.26087207 -0.28759933 -0.020567916 0.11139018
0.4659513 -0.1248999 0.026029976 0.064571865 0.2634508 -0.25021163 -0.051749345 -0.09119307
0.35867193 0.23372047 -0.4090404 -0.6156304 -0.14768793 -0.49674398 0.16936423 -0.009971763
0.009490039 0.031046612 0.14090322 -0.026500855 0.1236926 0.24606039 -0.57241976 -0.015033602
0.2010663 0.466254 -0.2789574 0.2525245 -0.3290973 -0.3092646 -0.33264062 0.20956065
-0.21445708 -0.15321276 0.007172591 -0.40507993 0.10378008 -0.01869135 0.17531696 -0.21838929
-0.5401409 0.16998884 0.08460439 -0.2587512 0.5009362 0.3213224 -0.59107006 0.26089853
0.14118417 -0.094054215 -0.26360112 0.0740598 0.15468983 -0.55056155 -0.12235933 0.13175794
0.3059411 0.24436216 -0.18701479 0.12981729 0.2770825 0.26789817 -0.0862301 -0.015000556
-0.40725923 0.03459657 -0.49818087 -0.18709387 -0.23704271 0.39490977 -0.29414573 0.11942523
-0.5975557 0.040977158 0.08469484 -0.26908004 0.18327951 0.36403787 -0.09566295 0.17832424

bias f4 [24]
00000000: 02bd 22bf f6a9 b1be 6bf2 9ebf 1090 32bf
00000010: 2e97 a0be 77d4 25bf 2146 5abf 103e 54be
00000020: 35ef 3dbf 44e5 7dbf e5c7 ebbe 3e53 4fbf
00000030: 1d36 b7bd b1c5 8cbf ddaf 12bf 67e1 d6be
00000040: 105d 0fbf e6c1 1cbe 013c 8dbd 346d 91bf
00000050: 3280 4cbe 8f03 0bbf 93dd fdbe 27a5 25bf
-0.63569653 -0.34699982 -1.241773 -0.6975107 -0.3136534 -0.6477732 -0.8526326 -0.207268
-0.74193126 -0.99177957 -0.46050945 -0.8098639 -0.08945868 -1.0997831 -0.57299596 -0.41968843
-0.5600138 -0.15308341 -0.068962105 -1.1361451 -0.19970778 -0.54302305 -0.4958311 -0.6470513

weight f4 [24]
00000000: 51ee 973f 9dbb 773f 5696 b93f a56b 993f
00000010: 4bb6 863f 04a0 9c3f bb91 a33f 6d3a 6d3f
00000020: e35f 9a3f ccb6 873f d460 6b3f 7407 a23f
00000030: 7b9b 873f 9bf3 923f cfde a13f 2556 813f
00000040: bc40 4c3f 968d 8c3f eae0 843f 65ee 9b3f
00000050: 1fc8 4e3f 977f 4c3f 5d33 953f 66a0 953f
1.1869603 0.9677065 1.4499004 1.1985976 1.0524381 1.2236333 1.2778848 0.92667276
1.2060512 1.060266 0.91944623 1.2658525 1.0594324 1.1480592 1.2646121 1.0104414
0.79786277 1.0980709 1.0381138 1.2182127 0.8077411 0.79882187 1.16563 1.1689575

bias f4 [24]
00000000: 4e1d 873e e126 0b3e 298c 753e 56eb 873e
00000010: 6a6a d2bc aff5 223d 5f00 f63d 9c6e f23c
00000020: 1fdc 713e ce69 463d 42e0 003d c096 923e
00000030: c468 a5bd 8375 b13d 01b0 5e3e fc6a 013e
00000040: 6d43 853e 0d3b ad3e 2ffc 703e acfb 903e
00000050: f832 403b 232b 8bbd 0da9 a53e d4ab 623e
0.26389545 0.1358905 0.23979248 0.26546735 -0.025685508 0.039785083 0.120117895 0.029593758
0.23619126 0.048440747 0.03146387 0.28630638 -0.08076623 0.08664992 0.21746828 0.12638468
0.26028004 0.33834115 0.235337 0.2831701 0.0029327255 -0.06795337 0.32355538 0.2213586

running_mean f4 [24]
00000000: d6ff e43d 0408 933e 4a14 733e f9e9 55bc
00000010: af4c 083f 35b8 073e 7e05 473e c67e 2e3f
00000020: 844a 70bc a8bf 4e3d e689 523f 9bbf 013f
00000030: 0ef8 223f d1ed 053e 6409 7f3e 3d17 1c3e
00000040: 420c 413e ac70 393e 5f59 423f ee50 ad3e
00000050: a04d ae3e 9bea ee3e ca88 b23d 2816 313d
0.11181609 0.28717053 0.23738208 -0.013056272 0.5324201 0.13253863 0.19435689 0.6816219
-0.014666203 0.050475746 0.82241666 0.5068299 0.6365975 0.13079001 0.24905926 0.1524324
0.18852332 0.18109387 0.7591762 0.33850807 0.34043598 0.46663365 0.08717497 0.04323402

running_var f4 [24]
00000000: 0568 d03e 73ac 613f d5aa ac3f 6275 713e
00000010: ea75 cc3f 8494 353f b7ac ba3f be49 a43f
00000020: 06ac 883e 4fa3 e33e bcf7 dd3f 6747 3e40
00000030: c0ee d23f 501c 6f3f 30c3 963f b347 1f3f
00000040: 9244 223f 3118 fb3e e454 0d40 a355 0940
00000050: 0eb5 323f 771f 8a3f 21d0 af3e bde5 913e
0.4070436 0.8815376 1.3489634 0.23579934 1.5973485 0.7092974 1.4583958 1.2835004
0.26693743 0.44460532 1.7341228 2.973108 1.6479111 0.93402576 1.1778316 0.6221878
0.6338588 0.49041894 2.2083063 2.1458519 0.6980752 1.0790852 0.34338477 0.2849559

weight f4 [12, 24]
00000000: 039e dabe fded 133e ad63 7dbd 41aa cabe
00000010: c38f d0be a449 e3be d35f 07be cc9c 7e3e
00000020: 9c43 7ebe f4d2 f33d ed53 913e 5ac7 40bc
00000030: 0e23 60be 38f8 bfbd b6f7 0ebf db14 a9be
00000040: c344 f23c 4dd9 f9be 34b2 1cbf a53b fabd
00000050: 7a70 69bc 55f2 403e 343d 86be fc58 07bf
00000060: 79b3 2a3e bfac c8bd 4e10 c3be 2248 b93d
00000070: e79b 5b3e 6b70 b9be 1ef7 3bbe 53d5 82be
00000080: 25bd 863d f876 a7be fa93 06bf 37aa 80be
00000090: 5382 903e 6292 68be 23bd b9be 712e 073e
000000a0: 3312 41be a918 a03d 6b79 953c 5305 b9be
000000b0: 45ab 09bf e45a f1bd 5a66 cf3d 90fb f43e
000000c0: 145e 90be 46c7 1a3e 466f 103e 5c69 61be
000000d0: 464b ae3c ed5a b4bd 8745 f03e 5f8b b6be
000000e0: 9929 71be a716 d53e 054e 3dbe ce43 143f
000000f0: d068 88be edc2 843e 99fa a0bd fbce 863c
00000100: d48f 133e 20f3 903c c458 e63d fb69 653e
00000110: e5bd 6a3e 1fc0 ddbd 4f20 e8bd 9edc 28be
00000120: 1c81 b33e 32d9 6fbe a9e8 f4be 5f91 c13e
00000130: 4ca8 c43d 41e9 233e add0 d8be a27e a03d
00000140: 07b0 4d3e c6ac b1be 73aa 9a3b 7f1f d8be
00000150: d3a6 2c3e a73e 9fbe f0bd 703e 2f0d 393d
00000160: c2f9 81bd c185 123e 9373 893e c17d 69be
00000170: 9ca8 96bd 8216 2dbe 44fc 3b3e 2f78 0f3e
00000180: 9860 c7be 7b88 033e 8a1a 55be 2733 e8be
00000190: 18ab 1bbe e5b2 46be 16e1 343d bd2c 363e
000001a0: 981e b7be 42b3 8cbd 629c 333d 9387 01bd
000001b0: f827 68be d7d1 f53c b01d 78be 3d7a c1be
000001c0: c0c4 453e 20d0 c7be a307 04bf 9b34 893e
000001d0: 3217 06bd c48b 1b3e f5a1 a3be 172a cebe
000001e0: 3cfd 2b3e 6bee a73d df10 babe 221a 833e
000001f0: 46be 743e 9c03 d9be a001 dcbe 29d8 6ebe
00000200: 03e2 61be fe1b c5be 0737 9abe 7bcf 9bbe
00000210: e6cb e03d b311 a4be ebce d5be 2e66 003e
00000220: bb6d 17be 54e3 933e 4408 513e 108e bfbe
00000230: 1ce9 34bf e078 25be a11d 2c3e 73bf 083e
00000240: 335e 0e3f 66bc 91be 3866 c3be 02f0 623e
00000250: 545e a3bd 864a 4f3e d8d2 8dbe 3ac0 b1be
00000260: 106d b33e 31f3 49be 3ceb 18be 28a1 8ebe
00000270: 895b 363e 3dd6 41be 64c8 b73e 1ecb 85bc
00000280: 01db 12be 2f01 833e fd19 bb3d 7e9f 71be
00000290: d19e 403d 6b62 66be 5561 8f3d 2351 523e
000002a0: 617d e9be 2fc3 b43d e58d 4d3e 25cc cabe
000002b0: 86da c8be ae64 99bd b13c 5e3e f5c0 623e
000002c0: 77ea a2be 3ebb 763e 00ee 9e3d f2c9 24be
000002d0: 1339 3dbe 81cb 803e 6ec4 98be 1658 b3be
000002e0: a207 d53d 7899 84be f4fa 503c d9cb d03e
000002f0: 2574 82bd 1082 8b3e 12ce cdbe d28e babe
00000300: 58dc a13e 9869 f7be d95e 21be ece1 8d3e
00000310: 848a 8abe bc23 b33e f46c 36be 9599 8ebe
00000320: c1b5 c83e 0642 28be 1be0 babd 82e2 52be
00000330: 1319 d13d e10c 22be 0c9c cb3e 75bb abbd
00000340: d6fe 35be 6d5c 143e 9c08 06bd 4e82 8fbe
00000350: 3663 a83d 43a0 eebd f8f4 9abe f409 fe3d
00000360: a1a0 82be f532 be3d cd4e d63e 3107 5bbe
00000370: f5ce fe3d b8e4 1e3c 5ee9 e13e 330b 59be
00000380: 66a5 81be 80cf bc3e 2824 993c 2b9c cd3e
00000390: fdd7 80be 5f13 7c3e 9d59 c0bd 3993 e83d
000003a0: 1b01 473e e813 c0bd 55a5 d93d 9bb8 d23e
000003b0: 7416 fd3d 1a38 3dbe 608b 8abe 5e4a 88bd
000003c0: b02c 0e3e f380 09be 75f8 f2be 263e 9f3e
000003d0: d612 e33d 3920 90be 8807 d5be 5350 60be
000003e0: 2834 903e b2d2 9ebe d545 9bbe 4828 98be
000003f0: 5a60 6a3e d4a2 d9be b4d9 803e e6fd bc3d
-0.42698678 0.14446254 -0.061862636 -0.39583018 -0.4073468 -0.4439212 -0.13220148 0.24864501
-0.24830478 0.119054705 0.28384343 -0.011766279 -0.21888372 -0.09373516 -0.55846727 -0.33023724
0.029573804 -0.487986 -0.61209416 -0.122184075 -0.014248008 0.18842442 -0.2621857 -0.52870154
0.16670026 -0.09798574 -0.38098377 0.09046961 0.21446191 -0.3621858 -0.18355986 -0.25553378
0.06579045 -0.32707953 -0.52569544 -0.25129864 0.2822443 -0.2271209 -0.36277112 0.1320131
-0.18854599 0.078172036 0.018246373 -0.36136875 -0.5377696 -0.11784914 0.10126944 0.47848177
-0.28196776 0.1511508 0.14104947 -0.22012848 0.021276128 -0.08806405 0.46928045 -0.35653207
-0.23551024 0.41618845 -0.18486793 0.5791596 -0.26642466 0.25929967 -0.07860298 0.016456118
0.14410335 0.017694056 0.112473994 0.2240371 0.22924002 -0.1082766 -0.113342874 -0.16490409
0.3505944 -0.23422697 -0.47833756 0.37806222 0.096024126 0.16006948 -0.42346707 0.07836653
0.2008668 -0.34702128 0.004720026 -0.4221153 0.16860513 -0.31102487 0.23509955 0.04517859
-0.06346466 0.14308836 0.2684599 -0.22801878 -0.073563784 -0.16903117 0.1835795 0.1401069
-0.38940883 0.12845032 -0.20810905 -0.45351526 -0.15201986 -0.1940418 0.04415997 0.17790504
-0.3576553 -0.06870128 0.04385031 -0.031623434 -0.22671497 0.030007286 -0.24230075 -0.37788573
0.19313335 -0.39025974 -0.5157415 0.26797947 -0.032736965 0.15190035 -0.319595 -0.40266487
0.1679582 0.081997715 -0.36340997 0.25605875 0.23900709 -0.42385566 -0.4296999 -0.23324646
-0.22058873 -0.3849792 -0.30120108 -0.30431733 0.109763905 -0.32044753 -0.41759428 0.12538978
-0.14787953 0.28884375 0.2041331 -0.37413073 -0.70668197 -0.16159391 0.16808178 0.13354282
0.55612487 -0.2846405 -0.38163924 0.22161868 -0.07976976 0.20243272 -0.27699924 -0.3471697
0.35044146 -0.19721676 -0.14933485 -0.27857327 0.17808355 -0.18929382 0.35895073 -0.016332205
-0.14341356 0.2558684 0.09135816 -0.23595998 0.04702646 -0.22498481 0.070009865 0.20538764
-0.4560347 0.08826291 0.2007366 -0.39608875 -0.3922922 -0.07489906 0.2170284 0.2214392
-0.31819507 0.24094865 0.07760239 -0.16092661 -0.18478803 0.2515526 -0.29837364 -0.35028142
0.104018465 -0.25898337 0.012755144 0.40780523 -0.06369809 0.27247667 -0.40196282 -0.36437088
0.3161342 -0.4832275 -0.15758838 0.27711427 -0.27058804 0.349882 -0.17815 -0.2785155
0.39201167 -0.16431436 -0.09124776 -0.20594218 0.10209861 -0.15825225 0.39767492 -0.08385364
-0.17772993 0.14488383 -0.032723054 -0.28029102 0.08222048 -0.11651661 -0.3026502 0.12404242
-0.25513175 0.09287063 0.41856995 -0.21389462 0.12441818 0.0096980855 0.44123358 -0.21195678
-0.25321501 0.3687706 0.018693998 0.4015821 -0.25164786 0.24616764 -0.093920924 0.113562055
0.19434015 -0.09378797 0.10627238 0.41156468 0.12357798 -0.18478432 -0.2705946 -0.066548094
0.13884234 -0.13428096 -0.47455183 0.31102103 0.11087577 -0.28149584 -0.41607308 -0.21905641
0.28164792 -0.31020123 -0.30326715 -0.29718232 0.22888318 -0.4250704 0.25166094 0.09228115

bias f4 [12]
00000000: d6fd 13be d7de e6be b11f f0be 9606 5b3f
00000010: 658a a43d fbed b4be f513 763f 5d94 c33e
00000020: cf31 8cbe 12d5 6fbe acbf ec3d 53a1 113f
-0.144523 -0.45091888 -0.4689918 0.85556924 0.08034209 -0.35337815 0.961242 0.3819913
-0.2738175 -0.23421124 0.11559996 0.56886786

weight f4 [12]
00000000: 3539 c33f 34b0 b83f 1ba6 a03f 5a12 be3f
00000010: e5e9 a43f 02ee ab3f fe72 d83f 1a94 c13f
00000020: 5500 ba3f b7f6 a63f 29fe a43f 3b7f c33f
1.5251833 1.4428773 1.2550691 1.484935 1.2883879 1.3432009 1.6910093 1.5123322
1.4531351 1.3044041 1.2890064 1.5273203

bias f4 [12]
00000000: 8663 6f3e 6be3 c23d 91ec 6b3e 4942 a03e
00000010: ea5c 8e3e c374 403e 8ef0 b63e 3787 ba3e
00000020: 4e8a 963d 855c 993e 6b82 b13e cd4b af3e
0.23377809 0.09516033 0.23039462 0.31300572 0.27805263 0.18794541 0.35730404 0.36431286
0.07350598 0.299534 0.34669814 0.3423752

running_mean f4 [12]
00000000: 10e7 fb3e d080 cd3e f957 003f 111d b23f
00000010: 7363 f73e d944 0b3f add0 b93f 5e19 493f
00000020: 6d90 ec3e a30a 213f db9a 5a3f d519 833f
0.49199724 0.4013734 0.50134236 1.391512 0.4831806 0.5440193 1.4516808 0.7855433
0.46203938 0.62906855 0.8539254 1.0242258

running_var f4 [12]
00000000: 73a8 7f3f a9d7 a33f 87d8 8040 300f 3340
00000010: d016 523f 5ce0 b23f 034a 8540 9c02 f83f
00000020: d428 3a40 b85e a340 619d 1040 1597 0d40
0.9986641 1.2800189 4.0264316 2.797802 0.8206606 1.3974719 4.1652846 1.9375796
2.908742 5.1053123 2.2596056 2.2123463

weight f4 [1, 12]
00000000: aaae fa3e edc1 1cbf 6e97 f03e f846 2bbf
00000010: b83c 0a3f de20 f8be 81cb 24bf 03a1 033f
00000020: 7f0c f8be 9d3b 173f 172e 0abf edbc 0b3f
0.48961383 -0.6123341 0.46990532 -0.66905165 0.539989 -0.48462576 -0.6437302 0.5141756
-0.48447034 0.5907534 -0.5397658 0.5458515

exp_avg f4 [48, 24]
00000000: d80d 8638 2269 88b9 dfd2 ca35 0aba 0239
00000010: b250 bcb8 bacd 1c38 b6d7 9538 0c31 b2b8
00000020: 9111 6f39 397b a938 a79d 0eb9 36e9 2539
00000030: 4d10 7439 4ab8 c3b7 ce43 83b9 fd58 6339
00000040: 5c8f 7839 5e14 f9b8 8cf0 84b9 56af 82b9
00000050: 5632 48b7 e854 c539 446f cdb9 a57d d339
00000060: f1ef 7b38 9d0b 3739 9825 a538 54ab 6fb9
00000070: 258c 8b38 dfd2 9c38 10da a038 ccd9 1a39
00000080: d21f 0cb8 a879 d837 7e6f 9b38 da73 7839
00000090: 872d 8338 152a a5b8 e36c 0438 ae56 d8b6
000000a0: ab9e 9538 362e e537 ee89 38b7 89b7 ba38
000000b0: 6d38 74b8 f393 f738 7fed 9638 ed16 84b8
000000c0: 21a4 9f38 409b 4eb7 fea7 71b8 04ba 35b8
000000d0: 74fd 48b8 65c9 ec36 4307 7838 1b0d e038
000000e0: 86fa ad36 4e7c 81b9 589c 06b8 6699 56b9
000000f0: b3a6 9cb8 9eb4 0e39 c061 44b6 5918 0039
00000100: b6c0 97b8 55b9 4034 68e8 9338 abf9 ea37
00000110: 6ef7 6339 b5d0 1eb8 2abd cd38 6b47 28b7
00000120: a1a7 8637 ed3a 3fb9 6e81 f637 ed9a 30b9
00000130: 5731 a4b8 23b8 05b9 e787 11b5 d49e 55b8
00000140: 8baa 06b9 8a36 1c39 f629 8ab8 3616 8638
00000150: 6419 3d38 8c21 fe37 dce9 18b8 eda1 2fb8
00000160: 850a 2138 3c91 0d39 4c39 c7b8 cd0e f835
00000170: 01f2 4ab9 3bd5 2939 8146 7037 3b07 fb38
00000180: 100c 73b9 40bb 40b9 a1e1 c3b9 4e37 9239
00000190: 7aca 78b9 d93b 50b9 c666 80b9 c8ea b5b9
000001a0: 9e48 87b8 3e67 dfb7 3877 82b9 94bf 61b9
000001b0: 8eeb 3cb8 eee8 90b8 69aa 49b9 4472 3c38
000001c0: 09a9 89b7 a764 19b9 2319 65b9 eb86 31b9
000001d0: fbcf 8239 0bbe 38b8 f88e 4cb8 2bb0 4db8
000001e0: 7250 0eb7 9611 213a 043f 55b9 1ce1 48b9
000001f0: bda6 2f39 1fde ec38 738b cc38 9e70 4cb8
00000200: 445c 96b8 ef62 82ba 150b ea39 9473 dab9
00000210: 45b4 123a af6b 5039 e743 4039 25db da39
00000220: 9735 8039 dcb0 5138 7e45 a5b9 554c 5cb9
00000230: 6440 3839 0fc4 26ba 1d4c a939 3d6b c2b9
00000240: eb66 8938 9e8b ba38 ad9f 4739 5f6f 6138
00000250: 163d 1839 4f23 4f39 2cc5 2939 3f92 7039
00000260: 5f3a a138 9e5c bfb9 b0ea b2b9 46c6 f0b8
00000270: 48f5 1839 61ba ebb9 6649 83b9 cad7 18b9
00000280: 1690 9b39 40a4 1c39 c49b 07ba 7b4c e4b7
00000290: 0d5d eb39 3858 20b7 5842 bfb9 74a8 9c39
000002a0: 8011 2e38 2fca da39 4d4f ef39 f3cc 76b9
000002b0: 0dc5 9139 dc77 f6b8 b8c2 8a37 fa97 6139
000002c0: 90ae b338 fa18 7339 5741 43b9 e183 76b7
000002d0: 36fe bc38 4a88 a7b8 fbac 96b9 88a4 8438
000002e0: b239 d839 ee55 ecb8 bf9f 9938 1ccc 83b9
000002f0: ca39 5739 4629 8e38 7ce2 3539 def8 43b9
00000300: ebf8 17b8 40bf 26b9 430d 6db9 5371 a739
00000310: 17e7 94b9 9e49 42b9 8b0c 88b8 0d0c 82b9
00000320: 5e11 1539 19ca b639 b6f6 4339 5e17 0939
00000330: 0075 fa38 d05d 7e37 8e2c 1eb8 fcb2 b9b8
00000340: dcfe 4e39 a8a0 0d39 3836 4bb9 5d32 89b8
00000350: 58c7 8ab9 2518 a339 ec30 11ba 8d1d d239
00000360: e707 603a a4eb bf39 bc95 053a 21c3 e737
00000370: e649 193a 6834 633a a04b 433a 8da0 b739
00000380: ad47 573a adef 4739 20c9 3238 87fe ea39
00000390: c670 9db9 1f1c 6c39 ec72 9b39 7900 5338
000003a0: c86f 2739 b94b 6038 b16e 063a 4bfe 19b8
000003b0: 0f6f 97b9 f1b2 f839 ca7c 9439 fa2a 9939
000003c0: d49c c537 c5b1 a8b9 80f7 2db9 8b61 18b8
000003d0: fbec 33b9 6b99 d3b8 0109 1837 234d 2d38
000003e0: 8181 3e39 27ac 61b8 21bc 0539 d8a5 cb39
000003f0: 5219 adb9 64dc 6138 1d8f a5b8 ad2a 07ba
6.3921965e-05 -0.00026018271 1.5111544e-06 0.00012467071 -8.979569e-05 3.7384896e-05 7.145053e-05 -8.496837e-05
0.0002279936 8.0815e-05 -0.00013600905 0.00015822504 0.00023275726 -2.3331628e-05 -0.00025036786 0.00021681558
0.00023704529 -0.00011877039 -0.00025356223 -0.00024926168 -1.1932649e-05 0.00037638028 -0.00039183546 0.0004033867
6.0066526e-05 0.00017456566 7.8748155e-05 -0.00022856641 6.6541405e-05 7.4779375e-05 7.670012e-05 0.0001476772
-3.3408236e-05 2.5805857e-05 7.411743e-05 0.00023694281 6.255047e-05 -7.8756515e-05 3.157266e-05 -6.4473925e-06
7.134428e-05 2.7320446e-05 -1.0999369e-05 8.903357e-05 -5.8226684e-05 0.000118054355 7.1967945e-05 -6.298521e-05
7.612282e-05 -1.2314704e-05 -5.7615332e-05 -4.3327003e-05 -4.7919762e-05 7.0567935e-06 5.913457e-05 0.000106835934
5.1849665e-06 -0.00024697412 -3.2093696e-05 -0.00020465776 -7.46971e-05 0.0001360946 -2.9263174e-06 0.00012216101
-7.236136e-05 1.7948817e-07 7.052795e-05 2.8011234e-05 0.00021740582 -3.786451e-05 9.810396e-05 -1.0030209e-05
1.6052103e-05 -0.00018237131 2.9385756e-05 -0.00016842382 -7.82932e-05 -0.00012752465 -5.4214473e-07 -5.0931078e-05
-0.00012842768 0.00014897637 -6.5881686e-05 6.393755e-05 4.508476e-05 3.0294781e-05 -3.6457423e-05 -4.1874056e-05
3.839519e-05 0.00013500912 -9.499732e-05 1.8481747e-06 -0.00019354375 0.0001619653 1.432153e-05 0.000119699595
-0.0002317878 -0.00018380303 -0.00037361405 0.00027888495 -0.00023726551 -0.00019858721 -0.00024490635 -0.00034697936
-6.450828e-05 -2.6631747e-05 -0.00024884357 -0.0002152904 -4.504207e-05 -6.9098416e-05 -0.00019232336 4.492911e-05
-1.6410386e-05 -0.00014628713 -0.00021848506 -0.00016930296 0.0002495049 -4.404601e-05 -4.877054e-05 -4.9039878e-05
-8.48259e-06 0.0006144283 -0.00020336738 -0.00019157346 0.00016751415 0.0001129473 9.7534525e-05 -4.8742273e-05
-7.169743e-05 -0.0009947697 0.00044640215 -0.00041666313 0.000559632 0.00019876541 0.00018335842 0.00041743476
0.0002445399 4.9994196e-05 -0.00031523028 -0.00021009271 0.00017571595 -0.00063616125 0.000322909 -0.00037082462
6.551839e-05 8.895177e-05 0.00019037603 5.3747903e-05 0.00014518606 0.00019754212 0.00016190548 0.00022942665
7.687951e-05 -0.00036499364 -0.00034125661 -0.00011481023 0.00014587224 -0.00044961556 -0.00025040953 -0.00014576237
0.00029671256 0.00014938507 -0.0005173052 -2.7215332e-05 0.0004489202 -9.557283e-06 -0.0003647979 0.00029880146
4.150113e-05 0.0004173084 0.00045644716 -0.00023536738 0.0002780337 -0.0001175252 1.6541555e-05 0.00021514288
8.5679e-05 0.0002318359 -0.0001862099 -1.4693448e-05 9.011889e-05 -7.988566e-05 -0.0002873911 6.324897e-05
0.00041241717 -0.000112693626 7.3253635e-05 -0.0002513834 0.00020525526 6.7787754e-05 0.00017345877 -0.0001868936
-3.623303e-05 -0.0001590224 -0.00022607022 0.00031937155 -0.00028400935 -0.00018528706 -6.487322e-05 -0.0002480451
0.00014216217 0.0003486432 0.00018688556 0.00013074043 0.00011942722 1.5161422e-05 -3.771163e-05 -8.854826e-05
0.00019740633 0.00013506657 -0.00019379787 -6.54205e-05 -0.00026469934 0.00031107772 -0.0005538601 0.00040076338
0.00085460994 0.00036605925 0.00050958595 2.762821e-05 0.00058474985 0.0008667172 0.00074499287 0.000350241
0.00082122796 0.00019067405 4.262582e-05 0.00044821596 -0.00030029396 0.0002251719 0.00029649527 5.030676e-05
0.00015968003 5.3476284e-05 0.00051281886 -3.671487e-05 -0.0002888371 0.00047435568 0.00028321735 0.00029214454
2.3557259e-05 -0.00032175906 -0.00016590767 -3.6330468e-05 -0.00017159052 -0.0001008984 9.062002e-06 4.1318253e-05
0.00018168056 -5.380451e-05 0.00012753952 0.0003884274 -0.00033015996 5.3849435e-05 -7.89447e-05 -0.00051562005

exp_avg_sq f4 [48, 24]
00000000: 7fbe fb34 3253 de34 1566 0535 01a5 2c35
00000010: 1484 ec34 3943 0235 d27f 0035 b6bc 0635
00000020: ea4f fe34 f3d1 2435 5ea3 2535 884a 2835
00000030: e1e4 2035 54f9 3035 1bb6 2935 2c20 2d35
00000040: 3351 1c35 8ac7 3335 f1a5 3b35 cdba 3735
00000050: 579a 2035 8a2d 2a35 3de6 2b35 9996 1c35
00000060: 7411 3235 d917 7635 58c8 5c35 353e 7735
00000070: b771 3035 5c47 2a35 4d88 3235 8730 6335
00000080: 3646 5335 2fbc 7035 bd4b 2735 b906 7535
00000090: 6cdf 7635 f76f 7b35 b187 3f35 c53b 7435
000000a0: 8c45 6935 f9b2 6035 39b2 6a35 596c 5335
000000b0: a6f1 2535 710b 6335 7646 7435 7cfc 5235
000000c0: 6814 f134 365a 1c35 7a6b 3435 1bbf 4135
000000d0: 988d 1b35 b806 fe34 fcb9 f734 139b 3435
000000e0: de5a f634 c504 2135 1b36 4e35 d39d 5935
000000f0: 7651 4635 2c7c 5735 409c 4a35 7911 5335
00000100: 1b6b 5335 5633 4735 a37f 3e35 2f58 4735
00000110: 93f9 3c35 5598 3b35 e912 4135 dfa9 1835
00000120: 6899 a734 9ed4 dc34 e2aa c134 94d6 b334
00000130: d2d8 b734 93ea af34 793a a634 9201 c434
00000140: 2f92 ba34 2918 cb34 5b58 6c34 d3ff be34
00000150: bb01 6534 cb9e ca34 4d9a 8f34 f91d af34
00000160: f13a c734 a823 a334 2231 7734 87c7 6634
00000170: 13b5 3634 6aae c234 b9c5 b734 9c2b b134
00000180: b9e5 0e35 3418 4335 1635 2c35 7809 4e35
00000190: c91d 2235 e327 0f35 ea4b 0e35 bb08 3335
000001a0: 9f2e 1b35 2639 ed34 2e40 4035 60cf 4335
000001b0: b26c 5e35 3965 5a35 467d 4135 b06f 5e35
000001c0: 3f8c 5f35 151b 4635 c79f 4135 0daa 3135
000001d0: 2d00 3335 f36c 5435 5598 5d35 799c 4a35
000001e0: d98a ec35 dd62 e135 ea9f c135 ccf3 0536
000001f0: 8c8a e635 c184 ff35 7659 ed35 6e02 b835
00000200: ce5a 1436 37a4 1636 d488 0936 2fbb 0436
00000210: 82dc 0336 2a88 3736 e4be 1a36 5ef2 0636
00000220: 2944 0c36 893f ef35 b89e 1636 de82 0836
00000230: 51f7 0636 5e22 1236 abcf f835 9910 e535
00000240: 3809 c035 0ec5 d535 f155 a035 7de8 ea35
00000250: 1a58 cd35 a8ad bd35 ed90 bb35 5d87 a935
00000260: cceb d335 9123 ef35 c42c cc35 6ce9 ea35
00000270: e2af dc35 d1d1 da35 f7af dd35 6d8d e035
00000280: ac59 f035 c035 ba35 b610 fe35 187c fd35
00000290: abb3 c935 b13d fc35 1ab0 0236 064d e735
000002a0: 8a7e 0436 3f3e 3336 3fd7 3236 92b5 5236
000002b0: 228f 1436 562b 0636 e57e 0336 a412 2d36
000002c0: c94a 1836 0fea 0036 ebd3 1936 e33b 3b36
000002d0: d0b5 2b36 5614 2436 a97e 4536 bdfb 2336
000002e0: bf64 2d36 5b6a 1c36 acc9 2936 6f8a 4236
000002f0: 5075 0e36 2bbe 4e36 fe14 3036 1458 1336
00000300: c8da a735 c043 5f35 f236 8935 5644 cb35
00000310: 3d29 8c35 7855 ad35 0fd1 a935 b366 9535
00000320: 631d ca35 49a9 e635 fb8f b335 1265 c535
00000330: 7f51 ba35 494f cc35 b11d a835 cb39 d135
00000340: c384 c035 3015 c735 318c bc35 daa6 ba35
00000350: cdd0 bf35 9da8 c335 8c51 b835 19e2 a535
00000360: 8442 1736 fbe1 2d36 0711 1736 9630 3236
00000370: bcba 2736 5684 2936 0d68 1b36 73b9 1f36
00000380: 7eb6 1a36 04d4 3136 cd4a 0f36 0628 1936
00000390: 15b3 3a36 3f00 3236 255e 2136 3556 3436
000003a0: 761f 2e36 27a0 2036 5999 2f36 ade9 2136
000003b0: 4922 0036 d2ca 3236 8ed4 5f36 4611 0d36
000003c0: 9d92 2135 5762 4735 5eb7 2635 9fad 4635
000003d0: d441 2835 555d 2635 7543 2135 3d27 2f35
000003e0: 3651 3435 5d40 3235 ab9d eb34 caf6 0e35
000003f0: 4bf8 2e35 1dc4 1635 f69f 2935 b2ff 1a35
4.6890997e-07 4.1411255e-07 4.969491e-07 6.4315105e-07 4.4054525e-07 4.8526596e-07 4.786972e-07 5.01935e-07
4.7369332e-07 6.140028e-07 6.170502e-07 6.2693334e-07 5.993771e-07 6.592793e-07 6.3222404e-07 6.449434e-07
5.823269e-07 6.6973064e-07 6.9904405e-07 6.8444643e-07 5.982924e-07 6.3396203e-07 6.4037505e-07 5.8333677e-07
6.6335565e-07 9.1676844e-07 8.2247925e-07 9.2105194e-07 6.5730586e-07 6.3433777e-07 6.650851e-07 8.4634706e-07
7.8705796e-07 8.968081e-07 6.232256e-07 9.1279395e-07 9.1967263e-07 9.3667717e-07 7.13505e-07 9.098406e-07
8.690047e-07 8.370694e-07 8.743114e-07 7.876129e-07 6.1818935e-07 8.458074e-07 9.099962e-07 7.859851e-07
4.4904596e-07 5.8245803e-07 6.7211624e-07 7.21762e-07 5.7948046e-07 4.7316075e-07 4.6142657e-07 6.728089e-07
4.5887185e-07 5.9984114e-07 7.6819714e-07 8.1068464e-07 7.387929e-07 8.0274435e-07 7.547824e-07 7.862905e-07
7.8759484e-07 7.420798e-07 7.096625e-07 7.42616e-07 7.0398636e-07 6.98846e-07 7.192562e-07 5.687161e-07
3.1217792e-07 4.1132893e-07 3.6073385e-07 3.3497474e-07 3.4244164e-07 3.2766965e-07 3.0962454e-07 3.6508987e-07
3.4751562e-07 3.7829275e-07 2.2011356e-07 3.5576394e-07 2.1327916e-07 3.774097e-07 2.6748094e-07 3.2618098e-07
3.7109524e-07 3.038706e-07 2.3021542e-07 2.1493007e-07 1.7015945e-07 3.626222e-07 3.4230268e-07 3.300055e-07
5.323341e-07 7.267838e-07 6.4152243e-07 7.675476e-07 6.0393046e-07 5.3329694e-07 5.300959e-07 6.66954e-07
5.780984e-07 4.418627e-07 7.161897e-07 7.294493e-07 8.2859617e-07 8.1358627e-07 7.20804e-07 8.286397e-07
8.327806e-07 7.380016e-07 7.213061e-07 6.6185095e-07 6.668295e-07 7.9134696e-07 8.255059e-07 7.547856e-07
1.762378e-06 1.6792579e-06 1.4426162e-06 1.9960453e-06 1.7176658e-06 1.9037617e-06 1.7683913e-06 1.3709775e-06
2.2106574e-06 2.2447327e-06 2.0494235e-06 1.9778488e-06 1.9648874e-06 2.7348383e-06 2.3058901e-06 2.0108632e-06
2.09013e-06 1.7825379e-06 2.2444128e-06 2.0341754e-06 2.0111513e-06 2.17757e-06 1.8537879e-06 1.706666e-06
1.4307798e-06 1.5927087e-06 1.1945941e-06 1.7502022e-06 1.5299331e-06 1.4132138e-06 1.3974765e-06 1.2630877e-06
1.5789351e-06 1.7817239e-06 1.5212213e-06 1.7502293e-06 1.6442466e-06 1.630333e-06 1.6516996e-06 1.6730461e-06
1.7907491e-06 1.3873723e-06 1.8929338e-06 1.8886085e-06 1.5027957e-06 1.8793418e-06 1.9474014e-06 1.7233258e-06
1.9743188e-06 2.670931e-06 2.6649357e-06 3.1398126e-06 2.2137033e-06 1.999278e-06 1.9594384e-06 2.578986e-06
2.2693296e-06 1.9209726e-06 2.292213e-06 2.790003e-06 2.5586814e-06 2.4449741e-06 2.9429013e-06 2.4435424e-06
2.583765e-06 2.3307718e-06 2.530035e-06 2.8988832e-06 2.1227934e-06 3.0807084e-06 2.6238263e-06 2.1955975e-06
1.2506143e-06 8.3172563e-07 1.0223287e-06 1.5144567e-06 1.0442815e-06 1.2914379e-06 1.2652325e-06 1.1131254e-06
1.5058725e-06 1.7185604e-06 1.3378443e-06 1.4707059e-06 1.3881798e-06 1.522226e-06 1.2525617e-06 1.5588533e-06
1.4343753e-06 1.4832822e-06 1.4047893e-06 1.390664e-06 1.4291378e-06 1.4577705e-06 1.3732802e-06 1.2359261e-06
2.253947e-06 2.5910547e-06 2.2510665e-06 2.6552348e-06 2.4993633e-06 2.5259992e-06 2.3157365e-06 2.3800792e-06
2.3054013e-06 2.6498465e-06 2.13522e-06 2.2822073e-06 2.78204e-06 2.652421e-06 2.4045669e-06 2.687227e-06
2.5946333e-06 2.3935079e-06 2.6166292e-06 2.4126887e-06 1.9093443e-06 2.6642124e-06 3.3353313e-06 2.1020692e-06
6.0190524e-07 7.427638e-07 6.2106653e-07 7.40134e-07 6.268067e-07 6.1975635e-07 6.0075337e-07 6.524968e-07
6.71734e-07 6.640383e-07 4.388688e-07 5.325825e-07 6.5181365e-07 5.6164737e-07 6.319018e-07 5.7741556e-07

exp_avg f4 [48]
00000000: f7ef 2539 8670 b238 cab8 0139 821b 2139
00000010: 3dab 2639 3a63 a937 c890 f7b8 4ae1 ab39
00000020: 069c 9b39 a898 1dba 6ee0 c9b8 116d 9e39
00000030: 4be2 dab6 0d96 5039 29e5 a1b7 f4f9 58b8
00000040: 3950 c337 2ca1 6937 16af 9839 41b1 16ba
00000050: 745e a238 5bf0 7038 0ad2 5239 44ec 9ab7
00000060: f622 10b9 debb 05b9 97fc e938 1572 12b9
00000070: 6398 e6b9 e470 24b9 a235 3e38 b189 7137
00000080: 7065 dab8 86b6 7c39 53a5 80b9 4bcf 88b8
00000090: 4a61 d738 c0c0 61b9 12fb 46b9 e348 2a38
000000a0: 119b e138 217b f539 7514 1a39 d79f 7039
000000b0: f0a4 7338 71d9 f138 5c14 29b9 90bc 7d39
0.0001582502 8.5086605e-05 0.00012371238 0.00015364404 0.00015894785 2.0192576e-05 -0.000118048454 0.00032783515
0.0002968015 -0.0006011822 -9.62623e-05 0.0003021737 -6.5232502e-06 0.00019892324 -1.9299407e-05 -5.17312e-05
2.3283168e-05 1.3925408e-05 0.00029122148 -0.0005748459 7.742355e-05 5.7444307e-05 0.00020105406 -1.846825e-05
-0.00013745934 -0.00012753854 0.00011157354 -0.00013966144 -0.00043982556 -0.00015682314 4.534948e-05 1.4396778e-05
-0.00010413944 0.00024100588 -0.0002453724 -6.523597e-05 0.000102701204 -0.00021529477 -0.00018976282 4.059904e-05
0.000107577194 0.0004682178 0.00014694205 0.00022947729 5.8089325e-05 0.00011532277 -0.0001612468 0.00024198205

exp_avg_sq f4 [48]
00000000: cf83 0934 5757 b234 5e4b 9634 0077 0034
00000010: 6aa5 4f34 cd7c 6c35 d39a 2d35 659c fe35
00000020: 952e b834 44e6 e135 ae5f 1c34 10b1 8d35
00000030: 8a2b 4e35 b9af cf34 4efe 5134 4e94 8535
00000040: c8bd 7834 dc8e f433 825e e034 deec c735
00000050: d4ff bb35 8672 8034 522e bf34 5f50 8f34
00000060: 57b4 5235 8589 7e35 12fc a134 a88f 1335
00000070: fe22 3f36 eee6 1236 f92e 3d35 e47c 1b34
00000080: 64de 4435 3b79 c635 ee7d 1a36 221e 1f35
00000090: c73c 3e34 589f 1535 b64e 4635 bf02 4634
000000a0: 44ef bf34 4580 a835 7494 6d36 5618 5635
000000b0: 9067 a833 7ef3 1535 a1bd 2236 1daa 9434
1.2807071e-07 3.3218632e-07 2.7994514e-07 1.1964221e-07 1.9338555e-07 8.809846e-07 6.467282e-07 1.8969992e-06
3.4306564e-07 1.6830822e-06 1.456344e-07 1.0556851e-06 7.680434e-07 3.868461e-07 1.9557157e-07 9.952435e-07
2.3165842e-07 1.13881214e-07 4.1792015e-07 1.4895593e-06 1.4007042e-06 2.3925185e-07 3.5610225e-07 2.6694303e-07
7.8493525e-07 9.482249e-07 3.0171992e-07 5.4970815e-07 2.8481586e-06 2.1890114e-06 7.047634e-07 1.4480935e-07
7.333931e-07 1.4787432e-06 2.302109e-06 5.9275965e-07 1.771724e-07 5.57387e-07 7.387529e-07 1.8441186e-07
3.575061e-07 1.2554307e-06 3.5402163e-06 7.9756626e-07 7.8419475e-08 5.5861153e-07 2.425026e-06 2.7690922e-07

exp_avg f4 [48]
00000000: b449 5a39 9e65 3a38 78e8 c637 e25f a138
00000010: 2034 e339 f8fa 86b8 6cbe b2b9 5e93 d436
00000020: 7a2d aa39 f2c2 6f38 c8bf 42b9 ad74 28b7
00000030: b043 033a 9e92 ef39 ff09 8e39 e941 83b9
00000040: 2dfa 66b9 18ef 1938 f466 31b9 382e cc39
00000050: c358 f5b9 7ef0 cb38 9feb 7c39 c512 c839
00000060: 811e 9c39 9374 23b9 1f01 a339 221a 8438
00000070: eccf 4bb9 668c 9737 572e f0b8 3f99 07b8
00000080: 7d6e e338 ca0a da39 1a7f 45b9 7bb9 b5b9
00000090: 873e 57b9 4781 82b9 b887 9db8 e6d6 39ba
000000a0: c2f7 7939 8205 29ba c041 1339 e92b 8f39
000000b0: ef9a 0cba 590b 31b9 5ca0 22b9 424e 3a3a
0.00020817557 4.4440494e-05 2.3711691e-05 7.694938e-05 0.0004333565 -6.4363645e-05 -0.0003409268 6.335248e-06
0.0003245881 5.7163597e-05 -0.00018572726 -1.0040746e-05 0.00050073396 0.0004569487 0.00027091798 -0.00025035374
-0.00022027707 3.6700716e-05 -0.00016918388 0.00038944348 -0.00046796174 9.7245895e-05 0.00024120368 0.00038160957
0.00029777366 -0.00015588319 0.00031090618 6.299118e-05 -0.00019437046 1.806598e-05 -0.00011452723 -3.232923e-05
0.000108447835 0.0004158824 -0.00018834733 -0.00034661204 -0.00020527291 -0.0002489185 -7.511623e-05 -0.00070892123
0.00023838787 -0.0006447659 0.00014043506 0.000273078 -0.0005363663 -0.00016884263 -0.00015509262 0.0007106998

exp_avg_sq f4 [48]
00000000: 14f9 6635 cb24 9635 30c2 3835 b073 4c35
00000010: 97b8 8b35 5ba9 b935 9627 7835 25c7 9c35
00000020: a139 b835 5dd3 9a35 73af 3835 28e7 8d35
00000030: 1587 9c35 f400 be35 1545 9c35 c049 e035
00000040: b7a6 5a35 2683 7335 cdb9 b835 a8fc 8235
00000050: bfb6 a735 e7b5 3c35 9e6c 9635 3e6b d235
00000060: 1d06 2236 77f9 ab35 03cd a835 77d6 8335
00000070: 8174 a935 0876 d235 5559 8035 0763 4b35
00000080: 75e7 0436 de80 af35 a32c 8f35 bc3d 4635
00000090: cdb2 8835 82f2 4335 7cca 7b35 56f0 8835
000000a0: 557d 0736 0a25 b335 e6d0 9a35 e104 c035
000000b0: df45 2535 23f6 9835 b9ac c435 81eb 7e35
8.6044133e-07 1.1186579e-06 6.882792e-07 7.616427e-07 1.041003e-06 1.3832863e-06 9.2444805e-07 1.1680864e-06
1.372584e-06 1.1535409e-06 6.8800654e-07 1.0572594e-06 1.166222e-06 1.415638e-06 1.1643011e-06 1.6710765e-06
8.145393e-07 9.07154e-07 1.3763143e-06 9.759287e-07 1.2495656e-06 7.030016e-07 1.1207483e-06 1.5677431e-06
2.414344e-06 1.2813097e-06 1.2576642e-06 9.822678e-07 1.2625388e-06 1.5680571e-06 9.562742e-07 7.5767497e-07
1.9804258e-06 1.3076021e-06 1.0667321e-06 7.3850583e-07 1.0184827e-06 7.2996056e-07 9.379944e-07 1.0202737e-06
2.018952e-06 1.3347319e-06 1.1534692e-06 1.4306535e-06 6.1568966e-07 1.1396518e-06 1.4653407e-06 9.4965077e-07

exp_avg f4 [48]
00000000: 43c8 4238 3ded f1b8 035d b038 5680 43b9
00000010: 4b7d 0839 5207 fa38 0b66 a137 d515 7038
00000020: 0ac3 5e38 d563 b939 afdb 8739 d25a 2139
00000030: f4b3 a5b9 dfce 05b9 44d4 48b9 b892 7638
00000040: 493d c2b8 abbf c4b8 d2ca 7239 dc80 8ab9
00000050: 6520 c239 8579 a039 2ddc fab6 6094 b339
00000060: 5731 1fba adbb 64b9 c04b ab39 2852 a7b8
00000070: 5367 ad39 2e07 7739 38cf 3638 5951 0b3a
00000080: 674a 3ab9 bc43 ee38 ccda 28b9 b431 ddb8
00000090: 77ed b838 c9f4 cdb7 1982 30b9 54d1 e639
000000a0: 87aa b1b9 be71 d8b8 5b27 e538 dc61 3839
000000b0: 0593 9239 966b 233a f7d6 cfb9 7384 83b9
4.6439713e-05 -0.000115359646 8.409659e-05 -0.00018644458 0.00013016646 0.000119222925 1.9240213e-05 5.724079e-05
5.311057e-05 0.0003536033 0.00025912884 0.0001538799 -0.00031605328 -0.00012760934 -0.00019152561 5.8787613e-05
-9.262056e-05 -9.381709e-05 0.00023154475 -0.0002641742 0.000370267 0.00030608117 -7.4762124e-06 0.00034252089
-0.0006072721 -0.00021813689 0.000326721 -7.978483e-05 0.00033074114 0.0002355843 4.358517e-05 0.0005314551
-0.0001776606 0.00011361341 -0.00016103237 -0.00010547359 8.818035e-05 -2.4551891e-05 -0.00016833133 0.0004402498
-0.00033887124 -0.00010320869 0.000109269015 0.00017584063 0.00027956828 0.0006233988 -0.00039642278 -0.0002508495

exp_avg_sq f4 [48]
00000000: a645 2735 5743 2236 7807 8c35 ce00 a935
00000010: 1bfe 9535 e9fd b035 0d66 8f35 bc50 3436
00000020: b816 b035 0c10 a135 d566 1a35 bba7 9f35
00000030: 1231 cf35 7cc6 6235 50b3 9a35 54bf c735
00000040: 739a 9235 28cd 9035 7298 7035 4057 4235
00000050: a28a 1c36 3f78 b835 1bc5 fa34 7100 1f36
00000060: 2830 f335 11bf 4a36 f5b5 2736 6e22 ed35
00000070: 8cae c435 b008 7236 3edc 7c35 25c5 1535
00000080: 1a65 c935 a8c4 6635 56d4 dd35 da3a 8535
00000090: b6c6 4035 c467 bd35 da6a 0e35 9013 5d35
000000a0: b379 af35 0870 dc35 b8a6 f935 5df1 8736
000000b0: a3b9 0235 ea0c 0f36 6720 ca35 14e1 a635
6.23137e-07 2.4179078e-06 1.0432987e-06 1.2591715e-06 1.117532e-06 1.318692e-06 1.0684031e-06 2.6869084e-06
1.3119634e-06 1.2000105e-06 5.751911e-07 1.1895239e-06 1.5436983e-06 8.4480394e-07 1.1526081e-06 1.4882339e-06
1.0922798e-06 1.0788544e-06 8.9628804e-07 7.23976e-07 2.3326506e-06 1.3744065e-06 4.6709542e-07 2.3693103e-06
1.8118926e-06 3.021156e-06 2.4990852e-06 1.7667896e-06 1.4653938e-06 3.6065867e-06 9.419781e-07 5.579371e-07
1.5005091e-06 8.596785e-07 1.6527581e-06 9.9264e-07 7.1814736e-07 1.4111797e-06 5.305461e-07 8.235738e-07
1.3073935e-06 1.6423883e-06 1.8600467e-06 4.051412e-06 4.869891e-07 2.1316177e-06 1.5059603e-06 1.243347e-06
